crypto_trading_dqn_v2.pth (torch, 73172 bytes, 6 tensors)

fc.0.weight f4 [128, 4]
0.62492657 -0.15705884 -0.4914003 0.454847 -0.30288434 -0.10608673 0.21894735 -0.012328327
0.5289065 -0.45172322 0.089930214 0.033870798 -0.46698016 0.15226418 0.111999154 -0.07961345
-0.014832884 -0.28787673 0.519354 -0.3684605 -0.4966843 -0.21873176 0.24224615 0.19035
0.5034126 0.3069051 -0.3612695 0.7239051 0.65651155 0.082007706 0.064662024 0.82910115
1.3227863 0.040300548 -0.4961018 0.24241716 1.2031503 0.16216141 -0.41798636 0.8817935
0.9404532 0.23862362 0.20305319 0.26475692 0.651459 -0.4749862 -0.5133843 0.14189833
1.2233925 0.27977556 -0.037729483 0.18341 -0.075186074 -0.18270922 -0.0011520982 0.22934031
0.852622 -0.23312819 -0.10471028 0.13051338 -0.2945434 0.16319859 0.19017261 0.17025971
1.0330477 0.42320728 -0.37377492 1.0595967 0.5242272 0.1280461 -0.24730952 0.07420486
1.2530149 0.33288348 0.17339966 0.9631123 0.15817648 0.24396855 0.2791335 0.52129775
0.8910332 -0.03197193 -0.48778135 0.6262688 -0.19273728 0.13571048 -0.20651853 -0.4574306
1.0287571 -0.028401315 -0.06588759 0.71319616 0.2931444 0.12128836 -0.017077342 0.058468103
-0.09370661 0.29890263 -0.29243875 -0.4675029 0.9546837 -0.3770728 -0.32639572 0.92731714
-0.075986505 0.19348419 -0.033475637 -0.227135 -0.1010775 -0.21452504 -0.040810227 0.13577706
-0.011613369 0.015075862 -0.025533855 0.26030898 1.2516042 0.09512228 -0.6134536 0.4789364
0.8941744 -0.16575158 -0.38453752 0.081465915 1.5067443 0.46256065 -0.6461243 0.89274096
-0.21666086 0.14121002 -0.48861247 0.117747724 1.2714208 0.3158065 -0.65569335 0.2266608
0.92284036 0.041844666 0.06281188 0.877013 0.6330099 -0.09570211 -0.28396392 0.5310438
0.7247799 -0.057458162 -0.50837165 0.078996085 0.16890606 0.16758496 0.23150502 0.4855326
1.0557606 -0.2751752 0.07777241 0.9272466 0.943059 0.28139395 0.06169759 0.8055826
-0.4779582 -0.24402893 0.090945065 0.28943157 0.8347097 -0.3956349 0.07452456 0.14421499
0.7379291 0.067426324 0.08713571 0.2972032 -0.4053679 -0.024206936 -0.10962218 0.16140091
0.5127016 -0.10743493 -0.04966136 0.26943734 0.15307236 -0.0024029016 0.39718017 -0.40747437
-0.35839385 -0.41494042 -0.069785714 0.48006278 -0.33220422 0.41190386 -0.15382904 -0.103544
-0.03478217 -0.22390848 -0.04078579 -0.3660121 0.91055274 -0.26231503 -0.7790368 0.96749204
1.0533081 -0.06887925 -0.11295155 0.8787867 1.2697148 0.32097083 0.20423323 0.15539566
1.4508666 0.3529749 -0.6372475 0.7929446 0.2597096 0.20396852 0.22944066 -0.06942921
1.3238605 0.025455832 -0.15357329 1.1283892 -0.490205 0.47826344 0.3902055 0.24577743
0.6490531 0.2929598 -0.15245707 0.15315166 1.2739108 0.20081562 0.112453625 0.13118622
-0.21419871 0.22614777 0.12659222 0.4479859 -0.27885187 0.2639953 0.26534194 -0.30491138
-0.2129007 0.30317187 -0.3350274 0.16054672 -0.06383097 -0.05846882 -0.36704546 -0.024742007
0.85232496 0.347677 -0.43718025 0.91041327 1.2008784 0.43799746 -0.09605575 0.5976995
00000000: 30fb 1f3f 08d4 20be d298 fbbe b5e1 e83e
00000010: a813 9bbe 0044 d9bd bc33 603e c0fc 49bc
00000020: 6b66 073f 4448 e7be 552d b83d 1bbc 0a3d
00000030: 0618 efbe 24eb 1b3e d05f e53d 600c a3bd
00000040: a005 73bc 9464 93be 62f4 043f dba6 bcbe
00000050: 684d febe 38fb 5fbe 600f 783e 1ceb 423e
00000060: a6df 003f aa22 9d3e 51f8 b8be d851 393f
00000070: 2411 283f a8f3 a73d 866d 843d f93f 543f
00000080: 1051 a93f 3012 253d 0e01 febe 343c 783e
00000090: d400 9a3f a40d 263e 4f02 d6be 38bd 613f
000000a0: 8ac1 703f c059 743e 2ded 4f3e 388e 873e
000000b0: 04c6 263f 6431 f3be 276d 03bf cc4d 113e
000000c0: 2098 9c3f be3e 8f3e 3b8a 1abd d5cf 3b3e
000000d0: 28fb 99bd 2018 3bbe 0002 97ba 30d8 6a3e
000000e0: 6f45 5a3f 28b9 6ebe 5872 d6bd 4da5 053e
000000f0: 64ce 96be 881d 273e 9cbc 423e 9058 2e3e
00000100: e83a 843f a0ae d83e 6d5f bfbe dda0 873f
00000110: c133 063f 841e 033e b53e 7dbe b8f8 973d
00000120: cb62 a03f b46f aa3e ae8f 313e 878e 763f
00000130: 04f9 213e e4d2 793e 96ea 8e3e c573 053f
00000140: c01a 643f 00f5 02bd 7abe f9be 2753 203f
00000150: ec5c 45be b0f7 0a3e 9879 53be 5834 eabe
00000160: 50ae 833f e0a9 e8bc 13f0 86bd 0694 363f
00000170: 0617 963e 0866 f83d c8e5 8bbc 407c 6f3d
00000180: 40e9 bfbd c409 993e 88ba 95be 8a5c efbe
00000190: 2766 743f b00f c1be 571d a7be a864 6d3f
000001a0: d09e 9bbd b820 463e c01d 09bd 1496 68be
000001b0: b801 cfbd 74ac 5bbe a028 27bd 2409 0b3e
000001c0: 0046 3ebc c000 773c 602c d1bc 3847 853e
000001d0: 9134 a03f 78cf c23d 4c0b 1dbf 2737 f53e
000001e0: 9de8 643f c8ba 29be 1ae2 c4be 9ad7 a63d
000001f0: ffdc c03f c0d4 ec3e 6768 25bf ac8a 643f
00000200: 58dc 5dbe 5c99 103e 6a2b fabe b825 f13d
00000210: ebbd a23f 64b1 a13e 85db 27bf c519 683e
00000220: 443f 6c3f 5065 2b3d 84a3 803d ed83 603f
00000230: f00c 223f 78ff c3bd b863 91be 7df2 073f
00000240: 2d8b 393f 4059 6bbd a524 02bf b3c8 a13d
00000250: b6f5 2c3e 649b 2b3e a70f 6d3e bb97 f83e
00000260: 2a23 873f c4e3 8cbe 2447 9f3d 0860 6d3f
00000270: 516c 713f de12 903e 9db6 7c3d a93a 4e3f
00000280: f0b6 f4be b8e2 79be 6841 ba3d 6030 943e
00000290: 89af 553f a890 cabe 55a0 983d 18ad 133e
000002a0: ece8 3c3f d016 8a3d 3574 b23d 052b 983e
000002b0: 628c cfbe a04d c6bc 9881 e0bd 4846 253e
000002c0: 6940 033f d806 dcbd b669 4bbd b1f3 893e
000002d0: 00bf 1c3e 007a 1dbb 335b cb3e 7ba0 d0be
000002e0: 667f b7be 1273 d4be d0eb 8ebd caca f53e
000002f0: ac16 aabe 10e5 d23e 5c85 1dbe e00e d4bd
00000300: c077 0ebd 4448 65be 000f 27bd f065 bbbe
00000310: fc19 693f 284e 86be f56e 47bf 8fad 773f
00000320: cdd2 863f 9010 8dbd 2453 e7bd 2af8 603f
00000330: 0486 a23f 4a56 a43e 8422 513e 0a20 1f3e
00000340: ffb5 b93f 20b9 b43e a722 23bf 6bfe 4a3f
00000350: a8f8 843e 20dd 503e 7ef2 6a3e e730 8ebd
00000360: 4374 a93f c088 d03c 5142 1dbe 0f6f 903f
00000370: 26fc fabe f2de f43e 04c9 c73e 14ad 7b3e
00000380: 5828 263f d4fe 953e b51d 1cbe cad3 1c3e
00000390: 820f a33f 9ca2 4d3e 164e e63d ae55 063e
000003a0: e856 5bbe 4893 673e 64a1 013e 685e e53e
000003b0: acc5 8ebe 642a 873e e6da 873e 581d 9cbe
000003c0: a402 5abe 5839 9b3e b688 abbe 5c66 243e
000003d0: d0b9 82bd 007d 6fbd 62ed bbbe c0af cabc
000003e0: f831 5a3f b802 b23e 17d6 dfbe d810 693f
000003f0: 62b6 993f 3441 e03e e1b8 c4bd d602 193f

fc.0.bias f4 [128]
0.099265784 0.11418563 0.8084057 -0.08258277 0.2639945 0.254493 0.8454462 0.16195306
0.9978179 0.3605102 0.16243564 0.31085396 0.54941577 0.26723927 1.0648345 0.3224256
1.1670401 0.6236831 0.6185721 0.2498153 1.0766504 -0.12829769 0.9476796 -0.06548215
-0.4223001 0.23467173 0.05263579 0.14777708 0.35808462 1.2643106 0.47557315 0.81036913
0.38447618 1.3531632 0.4884145 0.8278419 0.6233393 0.79278755 0.4440848 0.9512134
0.45153844 0.3732703 0.3584389 -0.3732425 0.978978 0.6877342 -0.22387803 0.10441202
-0.15698814 0.6446909 0.83872324 0.9689674 1.0087473 0.6286298 0.3778801 0.43506235
0.4544257 1.164279 -0.039654374 0.37856787 0.3978204 -0.13978785 0.94031537 0.81784135
0.08265454 0.7541634 -0.048673987 1.258319 0.9907764 0.8085635 0.910641 0.44375995
-0.45577526 0.24853468 0.6145954 0.9898703 0.6696041 1.0813001 0.42788696 0.10540736
0.42806223 -0.34543514 0.3017467 0.82248116 1.0891687 0.08512344 0.1951912 0.25189364
0.8496932 0.80734074 -0.2758634 0.9071335 0.24162565 -0.44061 0.055057094 0.456677
0.29820138 0.5413431 -0.19522291 -0.02005595 0.04389763 -0.23290265 1.0592993 0.08433231
1.1428181 -0.24570036 0.80488926 0.8226794 0.9995129 0.6118518 0.4317704 0.4832463
0.38193274 0.60353005 -0.47765142 0.83316827 0.38075522 0.7597456 -0.07343801 -0.032955
0.6414266 0.9408787 0.1201235 0.85195476 1.2438005 1.013898 0.8468573 0.6484103
00000000: dc4b cb3d 28da e93d adf3 4e3f 2821 a9bd
00000010: 492a 873e e84c 823e 2a6f 583f 06d7 253e
00000020: fe70 7f3f cb94 b83e 8755 263e 4028 9f3e
00000030: 83a6 0c3f 96d3 883e 7f4c 883f f814 a53e
00000040: 9261 953f b2a9 1f3f be5a 1e3f 95cf 7f3e
00000050: aecf 893f 7860 03be 219b 723f 811b 86bd
00000060: b837 d8be c94d 703e a098 573d e052 173e
00000070: de56 b73e eed4 a13f 537e f33e 5a74 4f3f
00000080: 10da c43e 7434 ad3f 7711 fa3e 72ed 533f
00000090: 2a93 1f3f 20f4 4a3f 155f e33e b982 733f
000000a0: 0c30 e73e 491d bf3e 4e85 b73e a419 bfbe
000000b0: 4d9e 7a3f 590f 303f 4840 65be f8d5 d53d
000000c0: 80c1 20be 760a 253f 91b6 563f 3f0e 783f
000000d0: a21e 813f e2ed 203f 8079 c13e 7ec0 de3e
000000e0: 7caa e83e 1807 953f a06c 22bd a6d3 c13e
000000f0: 1eaf cb3e 8c24 0fbe 82b8 703f 0d5e 513f
00000100: c946 a93d da10 413f 605e 47bd 9910 a13f
00000110: 86a3 7d3f 04fe 4e3f c51f 693f 8134 e33e
00000120: 605b e9be e07f 7e3e 2056 1d3f 2468 7d3f
00000130: 2d6b 2b3f 0b68 8a3f 0014 db3e d0df d73d
00000140: f92a db3e e0dc b0be 8b7e 9a3e 208e 523f
00000150: e169 8b3f 3355 ae3d 34e0 473e 34f8 803e
00000160: 7e85 593f e2ad 4e3f f83d 8dbe e739 683f
00000170: b76c 773e a297 e1be 8c83 613d 91d1 e93e
00000180: daad 983e 7695 0a3f 84e8 47be 604c a4bc
00000190: 00ce 333d 087e 6ebe 1f97 873f 6bb6 ac3d
000001a0: dd47 923f e098 7bbe 390d 4e3f 1e9b 523f
000001b0: 14e0 7f3f 52a2 1c3f 0311 dd3e 0f6c f73e
000001c0: b08c c33e f280 1a3f ba8e f4be 844a 553f
000001d0: 59f2 c23e b07e 423f ab66 96bd d2fb 06bd
000001e0: 8934 243f 6ddd 703f 4f03 f63d b519 5a3f
000001f0: db34 9f3f 69c7 813f a4cb 583f 38fe 253f

fc.2.weight f4 [128, 128]
-0.056874294 0.015555903 -0.016733766 -0.042237822 0.020793863 -0.042001516 -0.029295314 -0.013023354
0.017104432 0.045931093 0.054287486 0.040527485 0.040478192 -0.024608187 0.0096869245 -0.02431538
-0.04992743 -0.057282265 0.06433638 -0.08487581 0.06340853 -0.08632313 0.06680124 0.045465045
0.061099477 -0.077420145 0.03316074 0.033752047 -0.0010658503 -0.011895128 -0.042005412 -0.060850944
-0.058584444 0.036035605 -0.06339948 -0.047959898 -0.082266055 -0.007906854 -0.02954413 -0.022505343
0.0010731518 0.026447073 0.034626104 -0.033666976 -0.043526534 -0.05213607 -0.06459445 0.0024425238
0.0775054 0.054981284 -0.041849427 0.017643183 0.07393169 -0.035549667 -0.068142876 0.022344887
-0.03057877 0.044786222 -0.0600695 0.08772647 0.020093426 0.08167579 -0.040328402 -0.07828735
0.004182771 0.02336426 0.0055894703 -0.0670042 -0.028643947 0.011649497 -0.07941955 0.0017740205
0.08259829 0.038564302 -0.06684399 0.05614128 -0.0121371895 0.08136674 0.029147878 -0.08761195
0.013904877 -0.06968049 -0.027614195 -0.08280776 -0.052384052 0.016240045 0.07537574 -0.08242154
-0.011613093 -0.070742704 0.0665038 -0.07092689 -0.056713738 -0.025044397 0.01089932 0.020037562
-0.083251245 -0.07739204 0.053648792 -0.08367872 0.08618609 0.027253725 -0.020149954 0.082288705
-0.055145822 -0.08453059 -0.05232645 0.0028245375 0.071305804 0.04893782 0.04761956 0.07047213
-0.021187417 0.032137014 0.03744162 -0.020438522 0.0328736 -0.006172076 -0.0474308 0.053097017
0.06981126 0.053002425 -0.077781215 -0.0017073974 -0.05220513 0.047995336 -0.08471721 -0.015282281
0.07099443 -0.016168177 -0.075883515 0.014664546 -0.010979883 0.033066846 -0.011405833 0.06662821
-0.043649003 0.065492176 -0.045287125 -0.04505656 -0.06964555 0.05609057 -0.04771153 0.04738068
-0.062072393 -0.05335658 -0.060629472 0.032560475 0.032502174 -0.008232683 0.060057543 -0.0029377714
-0.046695948 0.062934555 -0.055391114 0.0654872 0.08150875 0.06303271 0.036944784 0.02203507
0.05203759 0.0143279135 -0.070280574 -0.034342557 -0.084218115 0.027528204 -0.0019947886 -0.0694627
-0.023630463 -0.069106765 -0.0576932 -0.061935857 -0.05335307 -0.0703355 0.052740954 0.03878715
-0.047520116 0.05833941 -0.0651487 0.046607204 0.057925917 -0.008590549 0.021672986 0.08557198
-0.08386896 -0.06801403 0.08509288 0.008736223 -0.06968713 -0.051779687 -0.049943805 -0.0292212
0.034079127 -0.06946704 -0.07120883 0.037043996 -0.06168565 0.0018454194 0.08142381 0.0021125898
0.06341653 -0.013464883 -0.050260905 -0.0024905652 0.049050264 -0.07832657 -0.051016126 0.04775486
-0.055121753 0.029707521 -0.07032062 -0.04969499 -0.0312111 -0.047695648 -0.051223498 0.058107547
0.07182171 -0.04241189 -0.04471949 0.064766996 0.080062754 -0.051032793 -0.071882345 -0.012686156
0.056982152 0.0740015 0.0034238696 -0.047952965 0.033720754 -0.08140575 -0.020004578 -0.031104404
-0.005328849 -0.009387843 0.06838509 -0.042009458 -0.041516352 0.03720803 0.014308296 -0.0039146394
0.06701834 0.010754555 0.07338417 -0.027340587 0.023031682 -0.02268736 -0.084009364 -0.042547338
0.0639376 0.054284133 0.040105842 0.08568185 -0.05013731 -0.088148944 -0.046743467 -0.013073102
00000000: 05f5 68bd 30de 7e3c 4015 89bc 9101 2dbd
00000010: e457 aa3c c809 2cbd bafc efbc e85f 55bc
00000020: 981e 8c3c 3e22 3c3d 8e5c 5e3d 2600 263d
00000030: 76cc 253d 1c97 c9bc e8b5 1e3c 0c31 c7bc
00000040: b480 4cbd cfa0 6abd cbc2 833d 5ed3 adbd
00000050: 55dc 813d 2eca b0bd 17cf 883d 8e39 3a3d
00000060: 7243 7a3d 748e 9ebd 8ed3 073d 963f 0a3d
00000070: 00b4 8bba c8e3 42bc de0d 2cbd d73e 79bd
00000080: 3ef6 6fbd 129a 133d 96d7 81bd 9971 44bd
00000090: 1b7b a8bd c08b 01bc 8806 f2bc 205d b8bc
000000a0: 00a9 8c3a 88a7 d83c 1ad4 0d3d 62e6 09bd
000000b0: e148 32bd a28c 55bd 184a 84bd c012 203b
000000c0: 27bb 9e3d 0e34 613d 4e6a 2bbd 7088 903c
000000d0: 7f69 973d 879c 11bd 7e8e 8bbd a00c b73c
000000e0: 5480 fabc c271 373d 700b 76bd efa9 b33d
000000f0: f89a a43c a345 a73d 652f 25bd 1e55 a0bd
00000100: a00f 893b 6866 bf3c e027 b73b 7f39 89bd
00000110: b6a6 eabc 88dd 3e3c b8a6 a2bd 4086 e83a
00000120: 4b29 a93d 9af5 1d3d 80e5 88bd 66f4 653d
00000130: 10db 46bc 9ba3 a63d 88c7 ee3c e56d b3bd
00000140: 48d1 633c a5b4 8ebd 2a37 e2bc 1d97 a9bd
00000150: a990 56bd d809 853c 995e 9a3d a0cc a8bd
00000160: d844 3ebc 8de1 90bd 2533 883d 1e42 91bd
00000170: aa4c 68bd e829 cdbc 1093 323c d025 a43c
00000180: a17f aabd b87f 9ebd d6be 5b3d c05f abbd
00000190: 5582 b03d 3443 df3c 8411 a5bc fb86 a83d
000001a0: 96e0 61bd 601e adbd 4254 56bd e01b 393b
000001b0: c708 923d 0673 483d ba0c 433d b153 903d
000001c0: 3c91 adbc 1aa2 033d 625c 193d b06e a7bc
000001d0: 78a6 063d 203f cabb cc46 42bd 427c 593d
000001e0: 35f9 8e3d 1219 593d c24b 9fbd c0ca dfba
000001f0: 0cd5 55bd c296 443d 3780 adbd 8862 7abc
00000200: 8765 913d 2073 84bc d168 9bbd 9043 703c
00000210: f8e4 33bc 1a71 073d 88df 3abc 5f74 883d
00000220: 4cc9 32bd c320 863d fe7e 39bd 3a8d 38bd
00000230: 53a2 8ebd 3abf 653d 2a6d 43bd 3e12 423d
00000240: 9f3f 7ebd 6e8c 5abd 9c56 78bd 225e 053d
00000250: 0021 053d 60e2 06bc e6fe 753d a087 40bb
00000260: 4044 3fbd d5e3 803d cbe1 62bd 271e 863d
00000270: 0fee a63d 4b17 813d 6a53 173d e482 b43c
00000280: 5e25 553d a0bf 6a3c 43ef 8fbd c8aa 0cbd
00000290: 8c7a acbd d482 e13c 00bb 02bb 7642 8ebd
000002a0: ac94 c1bc d987 8dbd b44f 6cbd 74b0 7dbd
000002b0: c088 5abd 0f0c 90bd e606 583d 46df 1e3d
000002c0: 74a4 42bd 4ef5 6e3d ae6c 85bd 32e7 3e3d
000002d0: ba43 6d3d 60bf 0cbc 8c8b b13c 5d40 af3d
000002e0: 7dc3 abbd f14a 8bbd 2d45 ae3d 6022 0f3c
000002f0: 20b8 8ebd f016 54bd e091 4cbd 4c61 efbc
00000300: 8e96 0b3d bc44 8ebd efd5 91bd 72bb 173d
00000310: 18aa 7cbd 00e2 f13a 87c1 a63d 6073 0a3b
00000320: 87e0 813d d09b 5cbc 61de 4dbd c038 23bb
00000330: eee8 483d ae69 a0bd 49f6 50bd 9a9a 433d
00000340: 59c7 61bd 305d f33c 4204 90bd f98c 4bbd
00000350: 6cae ffbc 835c 43bd bbcf 51bd 2e02 6e3d
00000360: 4317 933d 17b8 2dbd c92b 37bd 8fa4 843d
00000370: f1f7 a33d c307 51bd 0d37 93bd 98d9 4fbc
00000380: 1e66 693d 198e 973d 0063 603b 546a 44bd
00000390: c61e 0a3d 0fb8 a6bd a4e0 a3bc aace febc
000003a0: a09d aebb 78cf 19bc 7b0d 8c3d 1c12 2cbd
000003b0: 0d0d 2abd 7267 183d 586d 6a3c 6046 80bb
000003c0: e940 893d e033 303c 714a 963d 5ef9 dfbc
000003d0: f0ac bc3c d8da b9bc 1a0d acbd 1e46 2ebd
000003e0: b7f1 823d 0a59 5e3d 0646 243d f779 af3d
000003f0: c85c 4dbd 6f87 b4bd 1476 3fbd 9030 56bc

fc.2.bias f4 [128]
-0.07977167 -0.06896353 -0.0057106456 -1.459934 -1.3634406 -1.4243131 -0.070398755 -1.3164458
-1.4201783 -1.3441029 -0.059820235 -1.4186621 -0.020362146 -0.065701984 0.042589374 -1.4222479
-0.04215678 0.00584485 -1.1642017 -1.3931468 -1.3664198 -0.042038172 -0.0024881614 0.011725381
0.08164338 -0.060907792 -1.3493522 0.050926697 0.043773435 0.00777283 0.05773894 -0.009629741
-0.0127797425 -1.2806118 -1.3376215 0.040262755 -1.3143408 -1.2874875 -1.4217712 -1.421653
-1.3068917 -1.310955 -1.3266604 -0.030615237 -1.2979735 -1.4498407 0.029252052 0.07869948
-0.043388598 0.040599268 -0.01856418 0.06306036 0.04048372 0.034934923 0.061714746 -1.3938875
0.02701766 0.0689568 0.06935737 -1.348476 -1.3725233 -0.087488756 0.027539365 -1.2901788
-1.343725 0.057509176 0.075232856 -1.4238847 -0.03664369 -0.043398283 0.03740741 -1.3703043
-1.2638999 -0.009615086 -0.008553976 0.014762938 -1.3551751 -0.035941824 -1.4066303 0.028079916
0.0390634 -1.3305253 -1.2778723 0.034418017 0.06007504 -0.0009119287 0.046230845 0.06378607
-1.3907557 0.021343492 -1.4355351 -0.08696742 -0.028686164 -0.006174836 -0.016740657 0.013061643
-0.061473854 -1.4248745 0.061487682 0.04371509 0.016659714 -0.07774045 -0.7602938 -0.01945093
-1.461999 -0.066253446 -0.05065777 -0.040274654 -1.3765241 -1.3812927 0.062288266 0.06814844
-1.4304647 -1.2714899 -1.4397789 -1.4851936 -1.2846736 -1.2825704 -0.041170757 -0.0006137341
-0.08816895 -1.3281395 0.054731384 -0.07114528 -1.3861915 -0.07928408 0.06646416 -0.085546486
00000000: 545f a3bd c03c 8dbd 5e20 bbbb 1edf babf
00000010: 3985 aebf e44f b6bf 392d 90bd 4c81 a8bf
00000020: 67c8 b5bf 900b acbf 1006 75bd b896 b5bf
00000030: 84ce a6bc c38e 86bd 3272 2e3d 380c b6bf
00000040: 96ac 2cbd 2886 bf3b 9004 95bf a252 b2bf
00000050: d8e6 aebf 3830 2cbd 6c10 23bb d01b 403c
00000060: a534 a73d 737a 79bd 93b7 acbf 8398 503d
00000070: c64b 333d 39b3 fe3b ab7f 6c3d 10c6 1dbc
00000080: 2062 51bc 16eb a3bf 2e37 abbf 8fea 243d
00000090: 523c a8bf 64cc a4bf 99fc b5bf baf8 b5bf
000000a0: 3a48 a7bf 60cd a7bf 02d0 a9bf cecc fabc
000000b0: ff23 a6bf 6194 b9bf 00a2 ef3c 312d a13d
000000c0: 3eb8 31bd 6b4b 263d e813 98bc ca25 813d
000000d0: 42d2 253d ec17 0f3d 9ac8 7c3d e86a b2bf
000000e0: 2454 dd3c 3939 8d3d 3d0b 8e3d dd9a acbf
000000f0: d8ae afbf 4e2d b3bd 3c9a e13c 9424 a5bf
00000100: 2eff abbf be8e 6b3d af13 9a3d db41 b6bf
00000110: b217 16bd 66c2 31bd 8338 193d 2266 afbf
00000120: 79c7 a1bf 9888 1dbc fa25 0cbc 40e0 713c
00000130: 6176 adbf bc37 13bd 760c b4bf da07 e63c
00000140: f200 203d a74e aabf 5291 a3bf e8f9 0c3d
00000150: 3f11 763d 800e 6fba 8e5c 3d3d 45a2 823d
00000160: 4804 b2bf 8cd8 ae3c 9dbf b7bf fa1b b2bd
00000170: 3fff eabc 4756 cabb b423 89bc 8000 563c
00000180: 02cc 7bbd 4a62 b6bf 82da 7b3d 980e 333d
00000190: f479 883c 6336 9fbd 9da2 42bf 8f57 9fbc
000001a0: c922 bbbf e3af 87bd 867e 4fbd 09f7 24bd
000001b0: f131 b0bf 33ce b0bf fb21 7f3d 6991 8b3d
000001c0: 7819 b7bf 2ec0 a2bf ad4a b8bf d31a bebf
000001d0: 2f70 a4bf 442b a4bf aba2 28bd 00e3 20ba
000001e0: ec91 b4bd 7a00 aabf 042e 603d 9eb4 91bd
000001f0: b96e b1bf b15f a2bd 5d1e 883d ff32 afbd

fc.4.weight f4 [3, 128]
-0.0720118 -0.02705343 -0.00033308097 1.2870103 1.2183894 1.1678518 -0.050356593 1.2992508
1.2795297 1.2938476 0.040769212 1.2305028 -0.0066318065 0.08573382 -3.363192e-05 1.2110776
-0.062886864 0.038882006 1.260788 1.3291694 1.1882911 -0.048231475 0.053571656 -0.07598344
0.06145467 -0.03002724 1.2362903 -0.075052105 -0.04585852 0.06407996 0.08537426 0.08121174
-0.020162921 1.2110677 1.3184906 0.078007124 1.2122445 1.2080804 1.3345232 1.3139069
1.3042079 1.1666573 1.3380979 -0.059335314 1.3133239 1.3002608 -0.066997536 -0.06435714
0.0064300923 -0.036390346 0.05177752 -0.06619012 0.04569196 -0.08116912 0.04080353 1.3199146
0.025611445 -0.05711552 0.06286562 1.3102748 1.3396088 -0.0064483467 -0.05154433 1.3192351
1.2029417 0.03907025 -0.032579236 1.2017162 0.06936916 -0.009294204 0.02329089 1.2343968
1.0974299 0.060213324 0.048330378 0.060627975 1.3265924 -0.05305269 1.2751287 0.082389906
-0.021171406 1.2458968 1.3163993 -0.04574749 0.03279353 0.009845138 -0.022131845 -0.038416345
1.2551523 0.04635825 1.2148056 -0.034942828 0.03370996 -0.045607276 -0.020652346 -0.020029224
-0.006073743 1.1514786 -0.06306491 -0.053006474 -0.033949014 -0.08058546 2.1529698 0.0031903898
1.1594579 -0.015300021 0.005240146 0.037502255 1.2070087 1.338278 -0.07922176 0.09376462
1.1643603 1.2860994 1.2204999 1.2612958 1.2651114 1.250231 0.007935159 0.015510261
-0.04699871 1.3309343 0.013145379 -0.043574993 1.3389562 -0.0729718 -0.0019868985 -0.01750268
-0.01674112 -0.0055824444 -0.0736674 1.2413137 1.3021923 1.1966504 -0.06983074 1.2085462
1.2112063 1.3383031 0.054787554 1.2911521 0.07220175 0.003982961 0.059347697 1.2786366
0.039701533 -0.06040888 1.0090672 1.3283033 1.1824348 0.0671179 -0.0426232 0.07149375
0.018107142 0.009965162 1.2936699 -0.02509328 0.04099282 -0.053247683 -0.01571532 0.03870433
-0.070068 1.3370143 1.2475259 0.035994656 1.2935144 1.296122 1.2942609 1.347903
1.3019338 1.3021226 1.2948649 0.038215272 1.22544 1.1797607 0.06911584 0.042571343
0.009465248 0.029530143 0.018151864 0.03909331 0.033489726 0.04489828 -0.0085030645 1.2727765
0.02649396 0.08081921 0.08770006 1.331255 1.20663 0.001720114 -0.039946172 1.2741215
1.3005337 -0.050158393 0.00031957577 1.1686102 0.08159398 0.04495334 -0.0061457106 1.2576735
1.0958363 -0.05019057 -0.02797664 0.04064203 1.2520214 -0.05538421 1.324665 -0.053883452
0.085474424 1.1577415 1.345136 -0.006459147 0.06755473 0.055976816 -0.0865055 0.01876194
1.3277326 -0.046108186 1.2806383 0.03136781 -0.054335296 -0.02343219 0.0374349 0.014086634
0.010715961 1.1784787 -0.046566345 0.03192236 0.005334802 0.05888409 0.24164808 0.015339655
1.2655545 -0.054190204 0.062598884 0.06212603 1.1802197 1.1937633 -0.06148853 -0.061208148
1.3212234 1.3431365 1.2091432 1.1635004 1.3121208 1.3020451 -0.032905087 -0.030969176
-0.05417535 1.2302583 -0.030444091 0.020654969 1.3250496 0.014650326 -0.0704286 0.021437764
00000000: ec7a 93bd 289f ddbc 5fa1 aeb9 c1bc a43f
00000010: 2ff4 9b3f 2b7c 953f b742 4ebd da4d a63f
00000020: a1c7 a33f cc9c a53f 9efd 263d 1e81 9d3f
00000030: a04f d9bb 3795 af3d 0010 0db8 9704 9b3f
00000040: d4ca 80bd bd42 1f3d 8061 a13f 3922 aa3f
00000050: ec19 983f 5e8e 45bd f46d 5b3d 359d 9bbd
00000060: e4b7 7b3d b0fb f5bc c33e 9e3f ebb4 99bd
00000070: 25d6 3bbd 5b3c 833d b3d8 ae3d 5752 a63d
00000080: b62c a5bc 4404 9b3f 4dc4 a83f 33c2 9f3d
00000090: d42a 9b3f 61a2 9a3f a8d1 aa3f 1a2e a83f
000000a0: 49f0 a63f 0755 953f cb46 ab3f 9609 73bd
000000b0: ff1a a83f f26e a63f 0136 89bd adcd 83bd
000000c0: 86b3 d23b 0b0e 15bd aa14 543d b08e 87bd
000000d0: 7e27 3b3d ff3b a6bd 9a21 273d f6f2 a83f
000000e0: 18cf d13c f7f1 69bd b1bf 803d 16b7 a73f
000000f0: 4d78 ab3f a74c d3bb 2620 53bd b2dc a83f
00000100: fef9 993f 2008 203d ce71 05bd d6d1 993f
00000110: 6b11 8e3d b846 18bc 89cc be3c b700 9e3f
00000120: 9578 8c3f 3fa2 763d 13f6 453d 0a55 783d
00000130: c8cd a93f c74d 59bd 6b37 a33f 0abc a83d
00000140: a86f adbc 8c79 9f3f c67f a83f b861 3bbd
00000150: 8252 063d 804d 213c d84d b5bc 755a 1dbd
00000160: d5a8 a03f 26e2 3d3d c07e 9b3f 3620 0fbd
00000170: 7413 0a3d b2ce 3abd 1c2f a9bc 5414 a4bc
00000180: 4006 c7bb a763 933f 2d28 81bd 511d 59bd
00000190: 1f0e 0bbd fd09 a5bd 42ca 0940 dc15 513b
000001a0: 1e69 943f f0ac 7abc 88b5 ab3b f79b 193d
000001b0: 437f 9a3f b24c ab3f 053f a2bd aa07 c03d
000001c0: c209 953f e89e a43f 5739 9c3f 2472 a13f
000001d0: 2cef a13f 9207 a03f 7802 023c c01e 7e3c
000001e0: b881 40bd 0e5c aa3f b75f 573c b17b 32bd
000001f0: eb62 ab3f 3d72 95bd a036 02bb c861 8fbc
00000200: ac24 89bc f0ec b6bb efde 96bd 5ee3 9e3f
00000210: 3dae a63f d72b 993f 6b03 8fbd a4b1 9a3f
00000220: cf08 9b3f 844d ab3f ea68 603d 7944 a53f
00000230: 83de 933d 8083 823b 9216 733d 5daa a33f
00000240: 139e 223d 4d6f 77bd 1d29 813f d805 aa3f
00000250: 065a 973f 1c75 893d aa95 2ebd 516b 923d
00000260: 6e55 943c eb44 233c fa96 a53f 6c90 cdbc
00000270: 16e8 273d 3e1a 5abd 6abd 80bc 6e88 1e3d
00000280: d07f 8fbd 4923 ab3f eeae 9f3f 226f 133d
00000290: e191 a53f 53e7 a53f 57aa a53f 1688 ac3f
000002a0: c4a5 a63f f4ab a63f 22be a53f 9e87 1c3d
000002b0: 38db 9c3f 6602 973f 9b8c 8d3d 4a5f 2e3d
000002c0: 2114 1b3c 33e9 f13c 38b3 943c 4e20 203d
000002d0: 862c 093d 42e7 373d 7050 0bbc 57ea a23f
000002e0: dc09 d93c 8b84 a53d 179c b33d 9066 aa3f
000002f0: da72 9a3f 7375 e13a 999e 23bd 6a16 a33f
00000300: e377 a63f e372 4dbd bc8c a739 0595 953f
00000310: bf1a a73d fe20 383d f561 c9bb 72fb a03f
00000320: 5d44 8c3f a194 4dbd 442f e5bc 4278 263d
00000330: 3d42 a03f 8eda 62bd 9f8e a93f e5b4 5cbd
00000340: 370d af3d e030 943f 6b2d ac3f 41a7 d3bb
00000350: 225a 8a3d f247 653d cc29 b1bd a4b2 993c
00000360: 24f3 a93f f0db 3cbd f5eb a33f 887b 003d
00000370: b08e 5ebd ddf4 bfbc 5655 193d a0cb 663c
00000380: 0092 2f3c 64d8 963f 5abc 3ebd 05c1 023d
00000390: 90cf ae3b 7230 713d 9872 773e 2d53 7b3c
000003a0: b1fd a13f 8cf6 5dbd d833 803d dd77 7e3d
000003b0: 7011 973f 3ccd 983f 66db 7bbd 65b5 7abd
000003c0: d91d a93f e6eb ab3f 34c5 9a3f 95ed 943f
000003d0: 93f3 a73f 6aa9 a63f 7cc7 06bd 12b3 fdbc
000003e0: f9e6 5dbd 1b79 9d3f e365 f9bc 9c34 a93c
000003f0: 3a9b a93f ec07 703c df3c 90bd 409e af3c

fc.4.bias f4 [3]
-0.79038125 -0.8211494 -1.7414528
00000000: 6d56 4abf d936 52bf ede7 debf
